checkpoint.pth (torch_old, 14304 bytes, 6 tensors)

fc1.weight f4 [40, 37]
000000 99 a3 e0 bd 66 2e d8 3d 30 5b 75 3c 5c be 1e 3c
       -0.10968704 0.10555725 0.014975354 0.00968894
000010 79 1c 9e 3d c5 09 7c 3d 07 38 b4 3d 16 04 ac 3b
       0.077202745 0.061532754 0.08799749 0.0052495105
000020 b5 e5 e2 3d 54 0d 94 3d 18 e3 db 3b 18 4d f3 bc
       0.110789694 0.07229105 0.0067104213 -0.029699847
000030 7f 26 d7 bd d0 dc ef bb 71 f3 9b bd 5f 3b c0 3c
       -0.105053894 -0.007320024 -0.07614792 0.02346581
000040 28 10 0d 3e 31 d4 e3 3d bb c2 a5 bd c4 3f 83 be
       0.13775694 0.11124457 -0.080937825 -0.25634587
000050 89 5a 0c 3d ae a9 c3 3d 8d 8b e3 3d d8 97 0d 3e
       0.03426603 0.09553848 0.111106016 0.13827455
000060 b5 b7 10 3e 6b ef 57 3e 11 c4 1e 3c 06 f0 48 be
       0.14132579 0.21087424 0.009690301 -0.19622812
000070 3c 65 a2 be 97 7e 6f bf 3e 14 50 bd e4 85 d2 3d
       -0.3171786 -0.93552536 -0.050800554 0.10279444
000080 2d 08 83 3c e3 43 9f bc 6c fd c4 bd 98 08 e3 bc
       0.01599511 -0.01944155 -0.09618649 -0.027714059
000090 7a ca 17 bc b8 24 1d 3e 86 5a 45 3d 17 ed 0b 3c
       -0.009264583 0.15346038 0.048182033 0.008540413
0000a0 28 9d bf 3d 56 ed 23 bb b7 c6 6f bd ff 7c 15 be
       0.09356147 -0.002501329 -0.05853912 -0.14598463
0000b0 c5 5d 82 bd b4 fd 32 3e d9 cd ee 3e 81 26 76 3e
       -0.06365541 0.17479593 0.46641424 0.24038126
0000c0 f0 c1 d7 bc 0e eb 58 bd 8f c3 00 bd 3f 8e 0f be
       -0.026337594 -0.05295854 -0.0314365 -0.14019106
0000d0 6f 89 36 3d f2 3b 98 3b 3b 9e a1 3d af 3a ce 3b
       0.04456466 0.004645818 0.07891508 0.0062936167
0000e0 af 00 8a 3d a1 f8 2e 3e 0a 50 19 bf 32 dd d6 bd
       0.06738412 0.17087032 -0.59887755 -0.104914084
0000f0 0f f7 75 be 60 5c 1b bf 68 ba 06 3e b5 09 b7 3c
       -0.24020027 -0.6068783 0.13157046 0.022343496
000100 6d 60 ba bd 72 47 76 bc da ab 59 bd 85 8d bb 3d
       -0.09100423 -0.015031682 -0.053142406 0.09157852
000110 4f 8f b4 3e 9f 38 94 3c 2f ea ac be e1 c1 91 be
       0.35265586 0.018093405 -0.33772418 -0.2846823
000120 d8 8f a9 3d df d2 e9 3b 65 37 39 3e 92 6d 25 bd
       0.08279389 0.0071357335 0.18087538 -0.040387698
000130 60 2d be 3d 44 f6 f1 bc 01 f7 ba bc 25 42 ae be
       0.09285998 -0.029536374 -0.022822859 -0.3403484
000140 1f 97 0c be 97 bc 38 3e e4 f0 11 3e 4a b5 14 be
       -0.13729523 0.18040691 0.14252049 -0.14522281
000150 62 9e 33 be 81 1f e3 3d e4 69 a8 bc e3 e8 23 bd
       -0.17540887 0.11089993 -0.020558305 -0.04001702
000160 a8 c0 d8 3d 69 df d9 bd d5 53 27 3d 17 d1 25 3e
       0.10583621 -0.10638315 0.040851433 0.16193043
000170 82 62 aa 3d 0e 66 8c 3e a0 bb 63 be 70 bf 00 be
       0.0831957 0.27421612 -0.22239542 -0.12573028
000180 14 2d c4 3d b3 d2 00 3e dd e7 6a be 17 3b 5f be
       0.095789105 0.12580375 -0.22940011 -0.21799885
000190 53 d5 1c 3e bd 96 41 3e a0 7f 6b 3d b2 08 14 be
       0.15315752 0.18905158 0.05749476 -0.14456442
0001a0 d8 f2 fb bd 1f 4b 39 3e 4a 28 46 be a6 07 b9 be
       -0.12302178 0.18095063 -0.19351307 -0.36138648
0001b0 6a ea ca bc d9 f3 0c bc 64 6c fe bc f5 6d ff 3d
       -0.02476998 -0.00860306 -0.031057544 0.124721445
0001c0 ea 1f 0f be 2a 17 42 3e 1d 55 4d bb f7 05 38 3d
       -0.13977018 0.18954149 -0.003133125 0.044927564
0001d0 4b 68 96 be 04 4b 57 3e e4 28 a9 3d ff 0e 9c 3d
       -0.29376444 0.2102471 0.082597524 0.07620048
0001e0 bc 08 66 bd bd 40 f2 ba df 6b 7b 3b 3a 22 06 3d
       -0.056160673 -0.0018482428 0.0038363857 0.032747485
0001f0 a7 1f cf bd a3 e4 27 be b5 d9 dc bc 03 ec d8 be
       -0.10113459 -0.16395812 -0.02695928 -0.42367563
000200 4b 37 6c 3d 9c 16 d2 3b 9b 5d 1b 3e 93 da 8c 3d
       0.05766992 0.0064113867 0.15172426 0.06877627
000210 08 bd e0 bd 1f eb af 3d 2b 42 fe bd 76 86 34 3e
       -0.10973555 0.08589768 -0.12414964 0.17629418
000220 e2 44 ee bb ea 9a 12 bf 1c 92 81 3e 48 3d 57 3b
       -0.007271395 -0.5726763 0.25306785 0.0032842923
000230 53 d7 d2 3d b6 61 2a bd ac 99 df 3d b1 d3 28 3e
       0.10294976 -0.04159709 0.109179825 0.16487004
000240 6c 56 0a be 26 37 4e be df b1 22 3d 6b 97 c2 3c
       -0.1350953 -0.20138225 0.039720412 0.023753842
000250 89 75 bf bd d7 41 34 bd be 61 f6 bd f9 8a 8f bd
       -0.0934859 -0.044008102 -0.120303616 -0.07008929
000260 53 a9 34 bd 19 07 c3 3e e7 76 2c bf f7 80 42 bf
       -0.044106793 0.38091353 -0.6736893 -0.75978035
000270 99 2f 1b bf 3e 93 f6 bf 13 27 e1 bc 3b f7 23 bc
       -0.60619503 -1.9263685 -0.027484452 -0.010007675
000280 ba 23 bd bb 41 bb 9f bd 6d 3f a1 bd 9b 84 d2 bd
       -0.005772081 -0.07799388 -0.07873426 -0.10279199
000290 de 39 63 bb dd ea d8 bc 60 23 44 3d 2e 56 97 3d
       -0.0034671943 -0.026479179 0.0478853 0.07389484
0002a0 16 08 ab bd 48 85 87 3d 53 2f 7c 3d 8c 6b a5 bc
       -0.08351152 0.06617218 0.06156857 -0.020192884
0002b0 90 dc 29 3d df d8 55 3d de 88 a1 bc 47 6d 08 3e
       0.04147011 0.052208778 -0.019718584 0.13322936
0002c0 31 a8 b9 3d 74 51 1a 3d 1a 5d ed 3d b0 e9 0c 3c
       0.09065283 0.037675336 0.11590023 0.008600637
0002d0 ee 5a da 3d da 96 0f 3e ed 0b 27 3d ca 3f 63 3d
       0.10661875 0.14022389 0.040782858 0.055480756
0002e0 a9 8b 0e 3d 0c 83 1a bc 20 4a 48 3c 4c 97 9f bd
       0.03480116 -0.009430658 0.012224704 -0.077925295
0002f0 1e 62 ef bd ec f9 42 bc fe a7 95 3e cb 86 0b be
       -0.11688636 -0.011900406 0.2922973 -0.13625638
000300 89 bc 83 be ae 2b d6 be 95 1f 99 bf db 80 96 bd
       -0.25729778 -0.418302 -1.1962763 -0.07348796
000310 dd f0 25 be 39 a8 81 bc 8f 06 36 3c cc 8e a6 bd
       -0.16205163 -0.015827285 0.011109962 -0.08132705
000320 74 ad 30 bd 3e f1 21 3e a4 4a 2b be 81 cf 16 be
       -0.043134168 0.15814683 -0.16727692 -0.14727594
000330 5d 99 f9 bd 0d 76 7c 3d 30 66 fd 3b c8 95 42 3d
       -0.12187455 0.06163602 0.007733129 0.047506124
000340 47 a6 1e 3e 2a 78 2d 3b 87 0c 90 bd c8 bf 8a bd
       0.15493117 0.0026469328 -0.070336394 -0.067748606
000350 2b 68 d8 3d b6 c1 b8 3d f7 ef 8f bd b9 ee ab bc
       0.105667435 0.090213224 -0.070281915 -0.020987855
000360 86 f4 cd bd 31 7e 7a bd e6 b0 2d 3e 75 a9 b2 3d
       -0.10056405 -0.0611555 0.16962013 0.087237276
000370 3c 57 96 bd 89 d4 77 3d fd 70 c8 3d ad 86 32 bd
       -0.073408574 0.060505424 0.09787176 -0.043585468
000380 9c 26 f1 bd 7e 44 8c bb 77 e3 2a be 07 00 3a 3c
       -0.11774942 -0.004280626 -0.16688333 0.011352546
000390 02 56 21 bd 18 4a 88 3d e9 18 eb bd a7 d9 fe bb
       -0.039388664 0.06654757 -0.114793606 -0.007777411
0003a0 4b ba 2d bd 34 d2 15 3d db 61 63 3d 97 72 2a 3e
       -0.04241399 0.03657742 0.055513244 0.16645275
0003b0 82 a6 1e 3e 15 1b 94 bd 5a df 98 bc 3b e0 94 bd
       0.15493205 -0.07231728 -0.01866119 -0.07269331
0003c0 51 76 02 3c d5 cb 46 3e 33 e8 66 be b0 eb 22 3e
       0.007962779 0.19413693 -0.22549514 0.1591022
0003d0 dc 84 aa 3d 72 1a a7 bd 84 22 82 3e 88 d9 c5 bd
       0.08326122 -0.08159341 0.25416958 -0.096606314
0003e0 61 cb 1f bd 48 7b e4 bd 57 06 76 bd c7 26 e3 3b
       -0.039012317 -0.111563265 -0.06006464 0.006932113
0003f0 0f 22 9e 3e df c3 5f be 59 7d 48 be a1 83 2f be
       0.3088536 -0.21852063 -0.19579066 -0.17140056

fc1.bias f4 [40]
000000 18 0d 48 3e f3 b0 0b 3e 14 2d a4 3c 8a 74 be bd
       0.19536245 0.1364172 0.020041026 -0.09299572
000010 c6 0e 6e 3e c6 36 c1 3d 32 9f 6d 3d f9 13 ea bd
       0.23247823 0.09434275 0.05801315 -0.11429591
000020 d5 48 14 3e 54 d4 04 3c 5b 3f 96 3d 40 56 3c 3e
       0.14480908 0.008107264 0.07336303 0.18392277
000030 2d e7 01 3e 7c 9f 35 bd 22 16 61 bd 63 ef 93 3d
       0.12685843 -0.04434155 -0.054952748 0.07223394
000040 34 c0 8b bd 26 aa 32 be 20 03 69 3e 9a 80 4c bc
       -0.06823769 -0.17447719 0.22755098 -0.012481833
000050 54 01 d1 3d 77 fc cd bd c4 41 a8 3d 51 15 d2 bd
       0.102053314 -0.100579195 0.08215669 -0.10257972
000060 80 ce 09 bc 2a 7f a6 bd 69 a0 8a 3d 0b 6f fb 3d
       -0.00841105 -0.08129723 0.06768877 0.12277039
000070 22 8f 64 bd bc 25 38 3e ac 7a 4d 3d f2 63 a2 bd
       -0.055800565 0.17983145 0.050165817 -0.07929219
000080 55 0a a7 bd 12 4d 60 be 19 93 80 bd e0 05 2c be
       -0.081562676 -0.219044 -0.06278057 -0.16799116
000090 eb 34 dd bd 98 3e 14 3d ac 66 b6 3b 11 4f ea bc
       -0.10801109 0.036192507 0.0055664387 -0.028602155

fc2.weight f4 [40, 40]
000000 07 bc 46 3e 43 cf 07 3e 4f c8 ec bd eb d7 09 be
       0.19407664 0.13262658 -0.11561643 -0.13461272
000010 4a a5 6c 3e 26 80 01 3e 9c d5 45 bc 5a 9d b9 bd
       0.23109928 0.12646541 -0.012074854 -0.090632156
000020 46 5a 39 3d 2f 11 83 bd 45 6a 31 3e 86 44 91 3d
       0.045252107 -0.06399762 0.17325695 0.07093148
000030 49 42 07 3e 73 c0 3f 3e 52 30 37 3d 5b db 4d be
       0.1320888 0.18725757 0.044723816 -0.20103209
000040 f2 15 43 be 94 eb 9f 3d d0 78 44 bc 89 be 53 bd
       -0.1905134 0.07808605 -0.011991695 -0.05169538
000050 cb 3f 12 3e b5 56 80 3d 9c ce f9 3d 4f c8 77 3e
       0.14282148 0.06266538 0.12197611 0.24197505
000060 34 20 ac bc 11 d6 68 3e 57 e5 c9 3d 14 23 71 bd
       -0.02101145 0.2273791 0.09858196 -0.058871344
000070 92 35 08 bd 5a 50 e9 3d b1 50 2f be 95 f0 2c bd
       -0.033254214 0.11392279 -0.17120625 -0.042221624
000080 90 7c 5b 3e db b8 15 3e 1c ce 05 bd ca fe 9c 3d
       0.21434236 0.14621298 -0.032667264 0.07665785
000090 b7 e0 96 3b ce e1 d6 bd 26 17 f5 bc 2c d9 2a bd
       0.004604425 -0.104922876 -0.029918265 -0.041711017
0000a0 dd 69 62 3d f6 2d 1a 3e 59 9a c7 bd 8e 4b 78 be
       0.05527674 0.15056595 -0.09746236 -0.24247572
0000b0 5c a0 a1 be 37 d1 23 3d e2 a7 cf bd 58 bf 5f be
       -0.31567657 0.039994445 -0.10139443 -0.21850336
0000c0 12 b5 18 3e ef 82 a7 3d 83 d8 af be e8 38 80 bd
       0.14912823 0.081792705 -0.34344873 -0.06260854
0000d0 65 6a 1f 3e 37 3d 84 be ed b9 a1 be 38 b8 bc bd
       0.1556793 -0.25827953 -0.31587163 -0.092148244
0000e0 92 57 15 3c ff 64 89 be 53 47 96 3b 29 f8 e8 3d
       0.009115117 -0.26834866 0.004586139 0.11375458
0000f0 7c 0d 28 bd d0 1b 05 3e 2f d9 bf bd 87 4a bd 3d
       -0.041028485 0.12998891 -0.09367596 0.092427306
000100 eb 9f 3b 3e 98 96 d2 3d db a3 38 be 1f 2f 3b 3e
       0.18322723 0.1028263 -0.18031256 0.18279694
000110 7b 25 35 3e 78 50 61 3d 9e 01 10 bd ff 30 7b bc
       0.17690079 0.05500838 -0.035157792 -0.015331506
000120 09 d7 91 bc 5d 4e 8d bd 2a bc 5d 3e aa dc 26 bd
       -0.017802732 -0.06899712 0.2165381 -0.040737785
000130 c2 0d 16 be 02 7a 26 bd 48 ce ef 3d 5e 4d b4 be
       -0.14653686 -0.0406437 0.11709267 -0.35215276
000140 ef eb ea bd e0 03 b3 3e 0c 30 b5 3e e5 77 08 3d
       -0.11470782 0.34963894 0.3538822 0.033317465
000150 ec dd 61 be 6c 7e ec bc f1 86 63 3e 44 c3 ac be
       -0.22057313 -0.028868876 0.22219445 -0.33742726
000160 12 bb 25 be 40 c9 ac 3d c1 83 0a 3e fa c5 00 3d
       -0.16184643 0.08436823 0.13526823 0.031438805
000170 25 12 9f bd 00 6c f6 bd d0 98 1f be f7 6c 12 be
       -0.07767133 -0.12032318 -0.15585637 -0.1429938
000180 96 cb ea 3d 5a 81 f4 3a 3f da c2 bd 96 bf 61 3c
       0.11464612 0.0018654272 -0.095142834 0.013778588
000190 f7 72 0a 3b 44 e7 22 bd bc dc ab be ff ad 23 3d
       0.0021125653 -0.039771333 -0.33566844 0.039960857
0001a0 19 4b f2 3d f6 6c 66 3c 57 07 5d 3e e6 a2 c0 3c
       0.1183073 0.014064064 0.21584831 0.023515176
0001b0 cb 19 ca 3d 5e 61 80 3e a6 9f c7 bc 58 3f 9c be
       0.09868201 0.25074285 -0.024368118 -0.30517077
0001c0 a8 d4 b8 3e 19 6b 61 be 89 e8 b7 be 80 45 ba be
       0.36099744 -0.22013511 -0.35919598 -0.3638115
0001d0 d2 81 04 3e 13 cc 58 3c 90 72 ab 3e 60 2a 32 3d
       0.12940148 0.013232249 0.33485842 0.043497443
0001e0 54 8d 1a 3e 4b c3 e5 bd a8 0b 90 bd 2b 95 35 be
       0.15092975 -0.1121889 -0.07033473 -0.17732684
0001f0 bd 69 68 3e f3 a2 88 3e 88 d6 84 bd 54 ff fb 3d
       0.22696586 0.2668682 -0.06486231 0.12304559
000200 e1 c7 05 bd 0b c9 04 be b5 03 a5 bd f3 9f 23 3e
       -0.032661323 -0.12967317 -0.08057348 0.15978985
000210 ec 77 32 be 61 87 64 be f6 87 8e 3e 9c 1e 1f 3e
       -0.17428559 -0.22317268 0.27838105 0.1553902
000220 09 c3 aa 3d 0c 36 0d 3e ce 77 c0 3d bf be 86 3d
       0.08337981 0.13790148 0.09397851 0.06579351
000230 ea 56 3a bc 05 ea f9 bc 5e 71 89 3d ca 4a 80 3d
       -0.011373261 -0.030507097 0.06711076 0.06264265
000240 46 62 91 bd 43 7f b9 be ee 06 0f be d4 35 0e 3e
       -0.07098822 -0.36229905 -0.13967487 0.13887721
000250 7c 31 ef 3b cb e5 f2 bd 1f cd 04 3f 1d e7 3e 3d
       0.0072996 -0.11860236 0.5187549 0.046607126
000260 87 99 3d be 3b 15 32 3d 2d 0e 18 3d 22 2a a6 3c
       -0.18515597 0.04347728 0.037122894 0.020283762
000270 45 3b 51 3e 96 d8 5e be 69 be 89 be 6e fb f3 bd
       0.20432766 -0.21762308 -0.26903084 -0.11913191
000280 c3 26 15 be 88 fa b2 3e 33 e8 14 3e 39 11 c9 bc
       -0.14565568 0.34956765 0.14541702 -0.024544345
000290 28 bd a1 be af 45 04 be 64 6f c8 3c bd 08 0b bc
       -0.31589627 -0.12917207 0.024467178 -0.00848597
0002a0 90 16 1c be fe df 84 bd 2a 4c 5e 3e f3 85 c3 bd
       -0.15242982 -0.064880356 0.21708742 -0.09547033
0002b0 5a cb 36 3e 8b 00 e2 be eb b7 99 3d 6c 7b 6b 3e
       0.1785101 -0.4414104 0.07505783 0.229963
0002c0 87 e2 57 be e3 eb a3 3d b8 41 8f be 59 2b 4e bc
       -0.21082507 0.08003976 -0.27979827 -0.012583577
0002d0 a2 1e ad 3c 38 95 0f 3e d1 11 1a be 6e b7 7b be
       0.02113277 0.14021766 -0.15045859 -0.24581692
0002e0 8b 5c 38 bd 04 af 8e be 22 8a 48 bc c1 65 36 3d
       -0.04501013 -0.278679 -0.012239965 0.044530634
0002f0 74 43 fd bd cf f2 79 3e 10 5c 34 3d ff 36 b0 3c
       -0.12366381 0.2440903 0.04403311 0.0215106
000300 5a ae 73 3e 3e 7e 52 be 1f a7 d0 bd 95 f1 b9 3d
       0.23796979 -0.2055597 -0.10188126 0.09079281
000310 e8 40 39 3d 36 2f 85 be 77 e6 13 3e bb b9 b7 bd
       0.045227915 -0.26012582 0.14443384 -0.08970972
000320 4f cb 47 3e 26 90 5d be e4 66 6d bc bf 30 79 bd
       0.1951115 -0.2163702 -0.014489863 -0.060837504
000330 0f 6a 28 3d e5 64 f5 3d 26 10 e3 3d ce b3 11 be
       0.04111677 0.11982135 0.110870644 -0.14228746
000340 7d a4 1e 3e 6d dd 26 be a9 10 af bc c0 89 40 3e
       0.15492435 -0.16295405 -0.021370249 0.18802547
000350 da 05 06 bd 2b 66 78 3e ec 74 bf 3a 8d de 74 3b
       -0.032720424 0.24257724 0.0014606989 0.0037364096
000360 d9 f9 8a 3d 38 da 79 be 55 74 85 3d e4 d4 81 3d
       0.06785936 -0.2439965 0.06516329 0.06339434
000370 57 27 85 be b9 d7 38 3d e8 52 0e be 90 f7 1d bd
       -0.26006576 0.045127604 -0.13898814 -0.038566172
000380 54 33 13 bc 18 58 b1 be 9b 15 bf bc d3 0d 04 be
       -0.008984406 -0.34637523 -0.023325732 -0.12895899
000390 bd d5 e5 be c6 20 a6 bc b0 66 a3 bb 14 d4 da 3c
       -0.44889632 -0.0202793 -0.0049866065 0.026712455
0003a0 c3 ff 73 be c9 7c 25 be 97 cb d4 3c cf a5 c3 bd
       -0.23828034 -0.16160883 0.025975985 -0.0955311
0003b0 e8 e0 ed bd a1 66 27 bc bc 35 03 bc 7e e1 9b bd
       -0.11615163 -0.01021734 -0.008008417 -0.076113686
0003c0 ee 1f d8 bd 6a f9 86 bc 8c 65 86 be 26 6a f5 bd
       -0.10552965 -0.016476352 -0.2624935 -0.11983137
0003d0 4d 61 a2 3e 30 ba 29 bd 2b 24 8a bd b1 85 a7 3e
       0.3171486 -0.041437328 -0.0674518 0.32719186
0003e0 9a 0f fa 3c 8b 90 29 be 3d 87 3d be 8e 71 95 bd
       0.030525018 -0.16559045 -0.1850862 -0.072970495
0003f0 7c b3 93 be 5e b9 ad 3e 4f 50 78 be 90 24 91 3c
       -0.28847873 0.33930486 -0.24249385 0.01771763

fc2.bias f4 [40]
000000 66 ef 92 3e 95 33 ee bd 52 1f 97 bd e3 b9 2a be
       0.28698272 -0.11630932 -0.07379021 -0.16672473
000010 80 02 15 3e 97 d8 0b be ef 24 b3 3d cb a9 44 bd
       0.14551735 -0.13656841 0.08747279 -0.04801349
000020 a6 92 db 3d e5 0d ed 3d 9e c4 b7 bd 6b 01 81 3d
       0.1072133 0.11574916 -0.089730486 0.062990986
000030 4a a1 5b 3d 9d f4 47 be 16 94 93 3d 5d 14 aa 3e
       0.053620614 -0.19526906 0.072059795 0.3321866
000040 8f d3 19 3e 8b f1 af 3c c0 35 ad 3c 2f aa 38 3d
       0.1502211 0.021477481 0.021143794 0.045084175
000050 97 27 98 bd 06 7e b8 3e c8 c5 08 3e 14 e7 82 3d
       -0.07429426 0.36033648 0.13356698 0.06391731
000060 36 2b 89 bd 18 8e 6b bc 38 02 28 be ff 71 77 3e
       -0.06697695 -0.0143771395 -0.16407096 0.2416458
000070 1f 13 58 bd 7a ee f5 bd 2d a3 6d 3d d5 8f 15 bc
       -0.05275261 -0.120083764 0.058016945 -0.0091285305
000080 3c 9c a0 bd 98 56 09 be 11 50 e8 3d d8 d8 99 bd
       -0.07842299 -0.13411939 0.113433965 -0.07512063
000090 00 ec ca 3d 76 13 91 3e 75 02 00 be 68 98 d0 bd
       0.09908295 0.2833516 -0.12500937 -0.10185319

fc3.weight f4 [4, 40]
000000 23 44 24 3e de 6f 5f be 44 b2 af 3d d9 d3 3c 3d
       0.16041617 -0.21820018 0.08578923 0.04610047
000010 29 56 94 3e 55 51 85 3e e4 6a 4e 3e 2b 11 e1 be
       0.28971985 0.26038614 0.20157963 -0.4395841
000020 bd 7a 17 be ef 07 2b 3e 9e 97 be 3b 03 e3 2e 3b
       -0.14792915 0.16702245 0.005816414 0.0026685602
000030 1e 38 dd 3e a0 60 56 3e c9 b1 b3 3e dd b6 8c 3d
       0.43206877 0.20935297 0.35096577 0.06870816
000040 5e aa de 3d cb 06 2c 3e ef 4c e3 3d 90 ed 2c be
       0.10872339 0.16799466 0.11098658 -0.16887498
000050 e2 f9 0a 3d 5a 92 05 3e 34 7e 9a be 3e 7c 3b 3c
       0.033929713 0.1304411 -0.3017441 0.011443196
000060 b2 9a 36 be af 44 1a 3e 15 9e 86 be 21 52 0c 3e
       -0.17832449 0.15065263 -0.26292482 0.13703205
000070 17 b2 bc 3b 0c 67 9d 3d 66 d2 57 3e 06 bf 0f bf
       0.0057585347 0.0768567 0.21076354 -0.56150854
000080 9c 07 ad 3e 2f 83 9f 3e 4e 7b fa 3d b8 8d 72 3e
       0.33794868 0.31154773 0.1223055 0.23686874
000090 5d 2f d9 bc 6d f9 e7 3d e6 4a 1f bc dd 63 13 bf
       -0.026511842 0.11326871 -0.009722447 -0.57574254
0000a0 7a 65 1d 3d ae 02 4a be 1a 2f f9 bd 41 94 4e be
       0.038426854 -0.19727585 -0.12167187 -0.20173742
0000b0 fd e0 9b 3e 6d 54 02 be 67 68 7f 3e 43 e2 a1 be
       0.3044509 -0.12727518 0.2494217 -0.31617936
0000c0 9c c4 6f 3d f9 d9 0b 3e a6 5d 4e 3e 90 fe b2 3e
       0.05853711 0.13657369 0.20152912 0.3495984
0000d0 e6 15 0c 3e 05 e0 83 bd b6 0e 24 3e 9c 83 be 3d
       0.13680229 -0.06439213 0.16021237 0.09302446
0000e0 e3 69 f5 3d 02 06 5d 3e 7e 2d 16 3e 72 61 8b 3d
       0.11983087 0.21584323 0.14665791 0.068056956
0000f0 2e e6 8a 3c 89 1f 3b 3e 6c 53 4f 3d 6b e2 41 3e
       0.016955461 0.18273748 0.050616667 0.18934028
000100 bb 43 c2 bd 92 98 22 3e 21 bd 53 be b7 92 0c 3e
       -0.09485575 0.15878513 -0.20677616 0.13727842
000110 09 b1 08 3e dc 81 0f 3e 77 f4 15 3e 86 2a 9c 3d
       0.13348784 0.14014381 0.14644037 0.07625298
000120 b9 67 06 3e e1 aa 6a 3d bc d3 25 3e 02 1b 8d ba
       0.13125505 0.05729187 0.16194052 -0.0010765495
000130 86 3f af 3d 5f c4 09 3e 6d 70 36 3e 52 ec 64 bd
       0.08557038 0.13453816 0.17816325 -0.055889435
000140 fc 8f 26 3e 16 40 4f be 31 95 cc 3e 78 da 0e 3e
       0.16265863 -0.2023929 0.39957574 0.13950527
000150 c7 f2 d6 3e 54 0e 66 be d1 73 ca bd 4f 0f bc 3e
       0.419821 -0.22466403 -0.098853715 0.3673043
000160 bf 8f 17 3d 79 b3 9f 3e 3c 0b 36 3d 21 3a 79 3d
       0.03700232 0.31191614 0.044444308 0.06084645
000170 f7 14 35 3d ee 0d 6a be 96 7b 69 3e 33 41 7f 3e
       0.044209447 -0.22856876 0.2280105 0.24927215
000180 01 bc 71 3d 3d 43 5f be e9 23 33 3e d0 c2 84 be
       0.059017185 -0.21802993 0.17494167 -0.2592988
000190 af 3f 1e 3e 9c 41 15 3d c1 97 5d be 7c da c0 be
       0.15453981 0.036439523 -0.21639921 -0.3766669
0001a0 8f 4e 31 3e 38 31 55 3d 8d 2a 4b be c8 ff f9 3d
       0.17315124 0.05204889 -0.1984045 0.122069895
0001b0 1c b0 a6 bd d9 f8 d3 3d 3c 2f cf 3d 53 49 e9 3d
       -0.08139059 0.10350198 0.10116431 0.113909386
0001c0 56 40 0b 3e 0f dc 68 3e 53 de 16 bd 9e ee 6e bc
       0.13598761 0.22740196 -0.03683312 -0.014583258
0001d0 31 f1 53 3c bd 98 08 3e 87 fb 17 be 7b 3e 33 be
       0.0129359225 0.13339515 -0.14842044 -0.17504303
0001e0 a7 e7 ec 3d 57 18 2d bd ae 31 73 3d bc 34 3c be
       0.11567622 -0.04225954 0.05937355 -0.18379492
0001f0 c4 57 ba 3a 97 e8 89 be 90 75 11 3e 3f 50 d4 bc
       0.001421683 -0.26935264 0.14205003 -0.02591717
000200 7f 45 79 3d 48 82 88 3d 6d 3a 87 3e 53 62 ca 3e
       0.060857292 0.06665474 0.26411763 0.3952814
000210 fb 38 bc 3e a4 10 d8 3c a1 71 d5 3e 4e 9c d8 3d
       0.36762223 0.026375122 0.41688254 0.10576688
000220 25 c2 05 bd 5f 8c 26 be 61 87 04 be 6c cc c6 3d
       -0.032655854 -0.16264485 -0.12942268 0.09706959
000230 11 b1 b7 bd 0b 82 68 3d e3 fc 3d be fe 5c 94 3d
       -0.089693196 0.056764644 -0.185535 0.07244299
000240 6e 6a 2e be 79 d9 80 3e 6a db c4 be af fa a2 3d
       -0.17032787 0.25165918 -0.3844865 0.0795797
000250 c6 59 55 3e 25 86 6c 3e 9f 9a cb bc 97 2e 88 bd
       0.20835027 0.23098047 -0.024854003 -0.06649511
000260 08 25 8c 3e b1 9b 9b 3e d3 59 12 3e 39 5b ad 3c
       0.27372003 0.3039222 0.14292078 0.021161662
000270 7b 22 0f be 79 d4 fc 3d a7 3b 8a 3e b9 8e 65 be
       -0.13977997 0.123452134 0.26998636 -0.22417726

fc3.bias f4 [4]
000000 83 2c 96 3e da a2 1d 3d 8f 96 81 3e d0 fa 84 3e
       0.29330835 0.038485385 0.2531018 0.25972605
